…
    # PREDICTOR_NAME: "DensePoseChartWithConfidencePredictor"
    MY_PREDICTOR_NAME: "MyDensePoseChartWithConfidencePredictor"
    NUM_COARSE_SEGM_CHANNELS: 15
DATASETS:
  TRAIN: ("densepose_coco_2014_valminusminival",)
  TEST: ("densepose_coco_2014_minival",)
  # ROI_DENSEPOSE_HEAD:
  #   NUM_COARSE_SEGM_CHANNELS: 15
  # ROI_DENSEPOSE_HEAD.MY_PREDICTOR_NAME
SOLVER:
  MAX_ITER: 130000
  STEPS: (100000, 120000)

[11/20 08:19:57] detectron2.utils.env INFO: Using a generated random seed 59630113
[11/20 08:19:59] detectron2.engine.defaults INFO: Model:
GeneralizedRCNN(
  (backbone): FPN(
    (fpn_lateral2): Conv2d(256, 256, kernel_size=(1, 1), stride=(1, 1))
    (fpn_output2): Conv2d(256, 256, kernel_size=(3, 3), stride=(1, 1), padding=(1, 1))
    (fpn_lateral3): Conv2d(512, 256, kernel_size=(1, 1), stride=(1, 1))
    (fpn_output3): Conv2d(256, 256, kernel_size=(3, 3), stride=(1, 1), padding=(1, 1))
    (fpn_lateral4): Conv2d(1024, 256, kernel_size=(1, 1), stride=(1, 1))
    (fpn_output4): Conv2d(256, 256, kernel_size=(3, 3), stride=(1, 1), padding=(1, 1))
    (fpn_lateral5): Conv2d(2048, 256, kernel_size=(1, 1), stride=(1, 1))
    (fpn_output5): Conv2d(256, 256, kernel_size=(3, 3), stride=(1, 1), padding=(1, 1))
    (top_block): LastLevelMaxPool()
    (bottom_up): ResNet(
      (stem): BasicStem(
        (conv1): Conv2d(
          3, 64, kernel_size=(7, 7), stride=(2, 2), padding=(3, 3), bias=False
          (norm): FrozenBatchNorm2d(num_features=64, eps=1e-05)
        )
      )
      (res2): Sequential(
        (0): BottleneckBlock(
          (shortcut): Conv2d(
            64, 256, kernel_size=(1, 1), stride=(1, 1), bias=False
            (norm): FrozenBatchNorm2d(num_features=256, eps=1e-05)
          )
          (conv1): Conv2d(
            64, 64, kernel_size=(1, 1), stride=(1, 1), bias=False
            (norm): FrozenBatchNorm2d(num_features=64, eps=1e-05)
          )
          (conv2): Conv2d(
            64, 64, kernel_size=(3, 3), stride=(1, 1), padding=(1, 1), bias=False
            (norm): FrozenBatchNorm2d(num_features=64, eps=1e-05)
          )
          (conv3): Conv2d(
            64, 256, kernel_size=(1, 1), stride=(1, 1), bias=False
            (norm): FrozenBatchNorm2d(num_features=256, eps=1e-05)
          )
        )
        (1): BottleneckBlock(
          (conv1): Conv2d(
            256, 64, kernel_size=(1, 1), stride=(1, 1), bias=False
            (norm): FrozenBatchNorm2d(num_features=64, eps=1e-05)
          )
          (conv2): Conv2d(
            64, 64, kernel_size=(3, 3), stride=(1, 1), padding=(1, 1), bias=False
            (norm): FrozenBatchNorm2d(num_features=64, eps=1e-05)
          )
          (conv3): Conv2d(
            64, 256, kernel_size=(1, 1), stride=(1, 1), bias=False
            (norm): FrozenBatchNorm2d(num_features=256, eps=1e-05)
          )
        )
        (2): BottleneckBlock(
          (conv1): Conv2d(
            256, 64, kernel_size=(1, 1), stride=(1, 1), bias=False
            (norm): FrozenBatchNorm2d(num_features=64, eps=1e-05)
          )
          (conv2): Conv2d(
            64, 64, kernel_size=(3, 3), stride=(1, 1), padding=(1, 1), bias=False
            (norm): FrozenBatchNorm2d(num_features=64, eps=1e-05)
          )
          (conv3): Conv2d(
            64, 256, kernel_size=(1, 1), stride=(1, 1), bias=False
            (norm): FrozenBatchNorm2d(num_features=256, eps=1e-05)
          )
        )
      )
      (res3): Sequential(
        (0): BottleneckBlock(
          (shortcut): Conv2d(
            256, 512, kernel_size=(1, 1), stride=(2, 2), bias=False
            (norm): FrozenBatchNorm2d(num_features=512, eps=1e-05)
          )
          (conv1): Conv2d(
            256, 128, kernel_size=(1, 1), stride=(2, 2), bias=False
            (norm): FrozenBatchNorm2d(num_features=128, eps=1e-05)
          )
          (conv2): Conv2d(
            128, 128, kernel_size=(3, 3), stride=(1, 1), padding=(1, 1), bias=False
            (norm): FrozenBatchNorm2d(num_features=128, eps=1e-05)
          )
          (conv3): Conv2d(
            128, 512, kernel_size=(1, 1), stride=(1, 1), bias=False
            (norm): FrozenBatchNorm2d(num_features=512, eps=1e-05)
          )
        )
        (1): BottleneckBlock(
          (conv1): Conv2d(
            512, 128, kernel_size=(1, 1), stride=(1, 1), bias=False
            (norm): FrozenBatchNorm2d(num_features=128, eps=1e-05)
          )
          (conv2): Conv2d(
            128, 128, kernel_size=(3, 3), stride=(1, 1), padding=(1, 1), bias=False
            (norm): FrozenBatchNorm2d(num_features=128, eps=1e-05)
          )
          (conv3): Conv2d(
            128, 512, kernel_size=(1, 1), stride=(1, 1), bias=False
            (norm): FrozenBatchNorm2d(num_features=512, eps=1e-05)
          )
        )
        (2): BottleneckBlock(
          (conv1): Conv2d(
            512, 128, kernel_size=(1, 1), stride=(1, 1), bias=False
            (norm): FrozenBatchNorm2d(num_features=128, eps=1e-05)
          )
          (conv2): Conv2d(
            128, 128, kernel_size=(3, 3), stride=(1, 1), padding=(1, 1), bias=False
            (norm): FrozenBatchNorm2d(num_features=128, eps=1e-05)
          )
          (conv3): Conv2d(
            128, 512, kernel_size=(1, 1), stride=(1, 1), bias=False
            (norm): FrozenBatchNorm2d(num_features=512, eps=1e-05)
          )
        )
        (3): BottleneckBlock(
          (conv1): Conv2d(
            512, 128, kernel_size=(1, 1), stride=(1, 1), bias=False
            (norm): FrozenBatchNorm2d(num_features=128, eps=1e-05)
          )
          (conv2): Conv2d(
            128, 128, kernel_size=(3, 3), stride=(1, 1), padding=(1, 1), bias=False
            (norm): FrozenBatchNorm2d(num_features=128, eps=1e-05)
          )
          (conv3): Conv2d(
            128, 512, kernel_size=(1, 1), stride=(1, 1), bias=False
            (norm): FrozenBatchNorm2d(num_features=512, eps=1e-05)
          )
        )
      )
      (res4): Sequential(
        (0): BottleneckBlock(
          (shortcut): Conv2d(
            512, 1024, kernel_size=(1, 1), stride=(2, 2), bias=False
            (norm): FrozenBatchNorm2d(num_features=1024, eps=1e-05)
          )
          (conv1): Conv2d(
            512, 256, kernel_size=(1, 1), stride=(2, 2), bias=False
            (norm): FrozenBatchNorm2d(num_features=256, eps=1e-05)
          )
          (conv2): Conv2d(
            256, 256, kernel_size=(3, 3), stride=(1, 1), padding=(1, 1), bias=False
            (norm): FrozenBatchNorm2d(num_features=256, eps=1e-05)
          )
          (conv3): Conv2d(
            256, 1024, kernel_size=(1, 1), stride=(1, 1), bias=False
            (norm): FrozenBatchNorm2d(num_features=1024, eps=1e-05)
          )
        )
        (1): BottleneckBlock(
          (conv1): Conv2d(
            1024, 256, kernel_size=(1, 1), stride=(1, 1), bias=False
            (norm): FrozenBatchNorm2d(num_features=256, eps=1e-05)
          )
          (conv2): Conv2d(
            256, 256, kernel_size=(3, 3), stride=(1, 1), padding=(1, 1), bias=False
            (norm): FrozenBatchNorm2d(num_features=256, eps=1e-05)
          )
          (conv3): Conv2d(
            256, 1024, kernel_size=(1, 1), stride=(1, 1), bias=False
            (norm): FrozenBatchNorm2d(num_features=1024, eps=1e-05)
          )
        )
        (2): BottleneckBlock(
          (conv1): Conv2d(
            1024, 256, kernel_size=(1, 1), stride=(1, 1), bias=False
            (norm): FrozenBatchNorm2d(num_features=256, eps=1e-05)
          )
          (conv2): Conv2d(
            256, 256, kernel_size=(3, 3), stride=(1, 1), padding=(1, 1), bias=False
            (norm): FrozenBatchNorm2d(num_features=256, eps=1e-05)
          )
          (conv3): Conv2d(
            256, 1024, kernel_size=(1, 1), stride=(1, 1), bias=False
            (norm): FrozenBatchNorm2d(num_features=1024, eps=1e-05)
          )
        )
        (3): BottleneckBlock(
          (conv1): Conv2d(
            1024, 256, kernel_size=(1, 1), stride=(1, 1), bias=False
            (norm): FrozenBatchNorm2d(num_features=256, eps=1e-05)
          )
          (conv2): Conv2d(
            256, 256, kernel_size=(3, 3), stride=(1, 1), padding=(1, 1), bias=False
            (norm): FrozenBatchNorm2d(num_features=256, eps=1e-05)
          )
          (conv3): Conv2d(
            256, 1024, kernel_size=(1, 1), stride=(1, 1), bias=False
            (norm): FrozenBatchNorm2d(num_features=1024, eps=1e-05)
          )
        )
        (4): BottleneckBlock(
          (conv1): Conv2d(
            1024, 256, kernel_size=(1, 1), stride=(1, 1), bias=False
            (norm): FrozenBatchNorm2d(num_features=256, eps=1e-05)
          )
          (conv2): Conv2d(
            256, 256, kernel_size=(3, 3), stride=(1, 1), padding=(1, 1), bias=False
            (norm): FrozenBatchNorm2d(num_features=256, eps=1e-05)
          )
          (conv3): Conv2d(
            256, 1024, kernel_size=(1, 1), stride=(1, 1), bias=False
            (norm): FrozenBatchNorm2d(num_features=1024, eps=1e-05)
          )
        )
        (5): BottleneckBlock(
          (conv1): Conv2d(
            1024, 256, kernel_size=(1, 1), stride=(1, 1), bias=False
            (norm): FrozenBatchNorm2d(num_features=256, eps=1e-05)
          )
          (conv2): Conv2d(
            256, 256, kernel_size=(3, 3), stride=(1, 1), padding=(1, 1), bias=False
            (norm): FrozenBatchNorm2d(num_features=256, eps=1e-05)
          )
          (conv3): Conv2d(
            256, 1024, kernel_size=(1, 1), stride=(1, 1), bias=False
            (norm): FrozenBatchNorm2d(num_features=1024, eps=1e-05)
          )
        )
      )
      (res5): Sequential(
        (0): BottleneckBlock(
          (shortcut): Conv2d(
            1024, 2048, kernel_size=(1, 1), stride=(2, 2), bias=False
            (norm): FrozenBatchNorm2d(num_features=2048, eps=1e-05)
          )
          (conv1): Conv2d(
            1024, 512, kernel_size=(1, 1), stride=(2, 2), bias=False
            (norm): FrozenBatchNorm2d(num_features=512, eps=1e-05)
          )
          (conv2): Conv2d(
            512, 512, kernel_size=(3, 3), stride=(1, 1), padding=(1, 1), bias=False
            (norm): FrozenBatchNorm2d(num_features=512, eps=1e-05)
          )
          (conv3): Conv2d(
            512, 2048, kernel_size=(1, 1), stride=(1, 1), bias=False
            (norm): FrozenBatchNorm2d(num_features=2048, eps=1e-05)
          )
        )
        (1): BottleneckBlock(
          (conv1): Conv2d(
            2048, 512, kernel_size=(1, 1), stride=(1, 1), bias=False
            (norm): FrozenBatchNorm2d(num_features=512, eps=1e-05)
          )
          (conv2): Conv2d(
            512, 512, kernel_size=(3, 3), stride=(1, 1), padding=(1, 1), bias=False
            (norm): FrozenBatchNorm2d(num_features=512, eps=1e-05)
          )
          (conv3): Conv2d(
            512, 2048, kernel_size=(1, 1), stride=(1, 1), bias=False
            (norm): FrozenBatchNorm2d(num_features=2048, eps=1e-05)
          )
        )
        (2): BottleneckBlock(
          (conv1): Conv2d(
            2048, 512, kernel_size=(1, 1), stride=(1, 1), bias=False
            (norm): FrozenBatchNorm2d(num_features=512, eps=1e-05)
          )
          (conv2): Conv2d(
            512, 512, kernel_size=(3, 3), stride=(1, 1), padding=(1, 1), bias=False
            (norm): FrozenBatchNorm2d(num_features=512, eps=1e-05)
          )
          (conv3): Conv2d(
            512, 2048, kernel_size=(1, 1), stride=(1, 1), bias=False
            (norm): FrozenBatchNorm2d(num_features=2048, eps=1e-05)
          )
        )
      )
    )
  )
  (proposal_generator): RPN(
    (rpn_head): StandardRPNHead(
      (conv): Conv2d(
        256, 256, kernel_size=(3, 3), stride=(1, 1), padding=(1, 1)
        (activation): ReLU()
      )
      (objectness_logits): Conv2d(256, 3, kernel_size=(1, 1), stride=(1, 1))
      (anchor_deltas): Conv2d(256, 12, kernel_size=(1, 1), stride=(1, 1))
    )
    (anchor_generator): DefaultAnchorGenerator(
      (cell_anchors): BufferList()
    )
  )
  (roi_heads): MyROIHeads(
    (box_pooler): ROIPooler(
      (level_poolers): ModuleList(
        (0): ROIAlign(output_size=(7, 7), spatial_scale=0.25, sampling_ratio=2, aligned=False)
        (1): ROIAlign(output_size=(7, 7), spatial_scale=0.125, sampling_ratio=2, aligned=False)
        (2): ROIAlign(output_size=(7, 7), spatial_scale=0.0625, sampling_ratio=2, aligned=False)
        (3): ROIAlign(output_size=(7, 7), spatial_scale=0.03125, sampling_ratio=2, aligned=False)
      )
    )
    (box_head): FastRCNNConvFCHead(
      (flatten): Flatten(start_dim=1, end_dim=-1)
      (fc1): Linear(in_features=12544, out_features=1024, bias=True)
      (fc_relu1): ReLU()
      (fc2): Linear(in_features=1024, out_features=1024, bias=True)
      (fc_relu2): ReLU()
    )
    (box_predictor): FastRCNNOutputLayers(
      (cls_score): Linear(in_features=1024, out_features=2, bias=True)
      (bbox_pred): Linear(in_features=1024, out_features=4, bias=True)
    )
    (decoder): Decoder(
      (p2): Sequential(
        (0): Conv2d(256, 256, kernel_size=(3, 3), stride=(1, 1), padding=(1, 1))
      )
      (p3): Sequential(
        (0): Conv2d(256, 256, kernel_size=(3, 3), stride=(1, 1), padding=(1, 1))
        (1): Upsample(scale_factor=2.0, mode=bilinear)
      )
      (p4): Sequential(
        (0): Conv2d(256, 256, kernel_size=(3, 3), stride=(1, 1), padding=(1, 1))
        (1): Upsample(scale_factor=2.0, mode=bilinear)
        (2): Conv2d(256, 256, kernel_size=(3, 3), stride=(1, 1), padding=(1, 1))
        (3): Upsample(scale_factor=2.0, mode=bilinear)
      )
      (p5): Sequential(
        (0): Conv2d(256, 256, kernel_size=(3, 3), stride=(1, 1), padding=(1, 1))
        (1): Upsample(scale_factor=2.0, mode=bilinear)
        (2): Conv2d(256, 256, kernel_size=(3, 3), stride=(1, 1), padding=(1, 1))
        (3): Upsample(scale_factor=2.0, mode=bilinear)
        (4): Conv2d(256, 256, kernel_size=(3, 3), stride=(1, 1), padding=(1, 1))
        (5): Upsample(scale_factor=2.0, mode=bilinear)
      )
      (predictor): Conv2d(256, 256, kernel_size=(1, 1), stride=(1, 1))
    )
    (densepose_pooler): ROIPooler(
      (level_poolers): ModuleList(
        (0): ROIAlign(output_size=(28, 28), spatial_scale=0.25, sampling_ratio=2, aligned=False)
      )
    )
    (densepose_head): DensePoseV1ConvXHead(
      (body_conv_fcn1): Conv2d(256, 512, kernel_size=(3, 3), stride=(1, 1), padding=(1, 1))
      (body_conv_fcn2): Conv2d(512, 512, kernel_size=(3, 3), stride=(1, 1), padding=(1, 1))
      (body_conv_fcn3): Conv2d(512, 512, kernel_size=(3, 3), stride=(1, 1), padding=(1, 1))
      (body_conv_fcn4): Conv2d(512, 512, kernel_size=(3, 3), stride=(1, 1), padding=(1, 1))
      (body_conv_fcn5): Conv2d(512, 512, kernel_size=(3, 3), stride=(1, 1), padding=(1, 1))
      (body_conv_fcn6): Conv2d(512, 512, kernel_size=(3, 3), stride=(1, 1), padding=(1, 1))
      (body_conv_fcn7): Conv2d(512, 512, kernel_size=(3, 3), stride=(1, 1), padding=(1, 1))
      (body_conv_fcn8): Conv2d(512, 512, kernel_size=(3, 3), stride=(1, 1), padding=(1, 1))
    )
    (densepose_predictor): DensePoseChartWithConfidencePredictor(
      (ann_index_lowres): ConvTranspose2d(512, 15, kernel_size=(4, 4), stride=(2, 2), padding=(1, 1))
      (index_uv_lowres): ConvTranspose2d(512, 25, kernel_size=(4, 4), stride=(2, 2), padding=(1, 1))
      (u_lowres): ConvTranspose2d(512, 25, kernel_size=(4, 4), stride=(2, 2), padding=(1, 1))
      (v_lowres): ConvTranspose2d(512, 25, kernel_size=(4, 4), stride=(2, 2), padding=(1, 1))
    )
    (concate_part_densepose_head): ConcatePartDensePoseHead(
      (model): Sequential(
        (0): Conv2d(512, 512, kernel_size=(3, 3), stride=(1, 1), padding=(1, 1))
        (1): Conv2d(512, 512, kernel_size=(3, 3), stride=(1, 1), padding=(1, 1))
        (2): Conv2d(512, 512, kernel_size=(3, 3), stride=(1, 1), padding=(1, 1))
        (3): Conv2d(512, 512, kernel_size=(3, 3), stride=(1, 1), padding=(1, 1))
        (4): Conv2d(512, 512, kernel_size=(3, 3), stride=(1, 1), padding=(1, 1))
        (5): Conv2d(512, 512, kernel_size=(3, 3), stride=(1, 1), padding=(1, 1))
        (6): Conv2d(512, 512, kernel_size=(3, 3), stride=(1, 1), padding=(1, 1))
        (7): Conv2d(512, 512, kernel_size=(3, 3), stride=(1, 1), padding=(1, 1))
      )
    )
    (my_densepose_predictor): MyDensePoseChartWithConfidencePredictor(
      (part_I0): ConvTranspose2d(512, 1, kernel_size=(4, 4), stride=(2, 2), padding=(1, 1))
      (part_I1): ConvTranspose2d(512, 2, kernel_size=(4, 4), stride=(2, 2), padding=(1, 1))
      (part_I2): ConvTranspose2d(512, 1, kernel_size=(4, 4), stride=(2, 2), padding=(1, 1))
      (part_I3): ConvTranspose2d(512, 1, kernel_size=(4, 4), stride=(2, 2), padding=(1, 1))
      (part_I4): ConvTranspose2d(512, 1, kernel_size=(4, 4), stride=(2, 2), padding=(1, 1))
      (part_I5): ConvTranspose2d(512, 1, kernel_size=(4, 4), stride=(2, 2), padding=(1, 1))
      (part_I6): ConvTranspose2d(512, 2, kernel_size=(4, 4), stride=(2, 2), padding=(1, 1))
      (part_I7): ConvTranspose2d(512, 2, kernel_size=(4, 4), stride=(2, 2), padding=(1, 1))
      (part_I8): ConvTranspose2d(512, 2, kernel_size=(4, 4), stride=(2, 2), padding=(1, 1))
      (part_I9): ConvTranspose2d(512, 2, kernel_size=(4, 4), stride=(2, 2), padding=(1, 1))
      (part_I10): ConvTranspose2d(512, 2, kernel_size=(4, 4), stride=(2, 2), padding=(1, 1))
      (part_I11): ConvTranspose2d(512, 2, kernel_size=(4, 4), stride=(2, 2), padding=(1, 1))
      (part_I12): ConvTranspose2d(512, 2, kernel_size=(4, 4), stride=(2, 2), padding=(1, 1))
      (part_I13): ConvTranspose2d(512, 2, kernel_size=(4, 4), stride=(2, 2), padding=(1, 1))
      (part_I14): ConvTranspose2d(512, 2, kernel_size=(4, 4), stride=(2, 2), padding=(1, 1))
      (part_U0): ConvTranspose2d(512, 1, kernel_size=(4, 4), stride=(2, 2), padding=(1, 1))
      (part_U1): ConvTranspose2d(512, 2, kernel_size=(4, 4), stride=(2, 2), padding=(1, 1))
      (part_U2): ConvTranspose2d(512, 1, kernel_size=(4, 4), stride=(2, 2), padding=(1, 1))
      (part_U3): ConvTranspose2d(512, 1, kernel_size=(4, 4), stride=(2, 2), padding=(1, 1))
      (part_U4): ConvTranspose2d(512, 1, kernel_size=(4, 4), stride=(2, 2), padding=(1, 1))
      (part_U5): ConvTranspose2d(512, 1, kernel_size=(4, 4), stride=(2, 2), padding=(1, 1))
      (part_U6): ConvTranspose2d(512, 2, kernel_size=(4, 4), stride=(2, 2), padding=(1, 1))
      (part_U7): ConvTranspose2d(512, 2, kernel_size=(4, 4), stride=(2, 2), padding=(1, 1))
      (part_U8): ConvTranspose2d(512, 2, kernel_size=(4, 4), stride=(2, 2), padding=(1, 1))
      (part_U9): ConvTranspose2d(512, 2, kernel_size=(4, 4), stride=(2, 2), padding=(1, 1))
      (part_U10): ConvTranspose2d(512, 2, kernel_size=(4, 4), stride=(2, 2), padding=(1, 1))
      (part_U11): ConvTranspose2d(512, 2, kernel_size=(4, 4), stride=(2, 2), padding=(1, 1))
      (part_U12): ConvTranspose2d(512, 2, kernel_size=(4, 4), stride=(2, 2), padding=(1, 1))
      (part_U13): ConvTranspose2d(512, 2, kernel_size=(4, 4), stride=(2, 2), padding=(1, 1))
      (part_U14): ConvTranspose2d(512, 2, kernel_size=(4, 4), stride=(2, 2), padding=(1, 1))
      (part_V0): ConvTranspose2d(512, 1, kernel_size=(4, 4), stride=(2, 2), padding=(1, 1))
      (part_V1): ConvTranspose2d(512, 2, kernel_size=(4, 4), stride=(2, 2), padding=(1, 1))
      (part_V2): ConvTranspose2d(512, 1, kernel_size=(4, 4), stride=(2, 2), padding=(1, 1))
      (part_V3): ConvTranspose2d(512, 1, kernel_size=(4, 4), stride=(2, 2), padding=(1, 1))
      (part_V4): ConvTranspose2d(512, 1, kernel_size=(4, 4), stride=(2, 2), padding=(1, 1))
      (part_V5): ConvTranspose2d(512, 1, kernel_size=(4, 4), stride=(2, 2), padding=(1, 1))
      (part_V6): ConvTranspose2d(512, 2, kernel_size=(4, 4), stride=(2, 2), padding=(1, 1))
      (part_V7): ConvTranspose2d(512, 2, kernel_size=(4, 4), stride=(2, 2), padding=(1, 1))
      (part_V8): ConvTranspose2d(512, 2, kernel_size=(4, 4), stride=(2, 2), padding=(1, 1))
      (part_V9): ConvTranspose2d(512, 2, kernel_size=(4, 4), stride=(2, 2), padding=(1, 1))
      (part_V10): ConvTranspose2d(512, 2, kernel_size=(4, 4), stride=(2, 2), padding=(1, 1))
      (part_V11): ConvTranspose2d(512, 2, kernel_size=(4, 4), stride=(2, 2), padding=(1, 1))
      (part_V12): ConvTranspose2d(512, 2, kernel_size=(4, 4), stride=(2, 2), padding=(1, 1))
      (part_V13): ConvTranspose2d(512, 2, kernel_size=(4, 4), stride=(2, 2), padding=(1, 1))
      (part_V14): ConvTranspose2d(512, 2, kernel_size=(4, 4), stride=(2, 2), padding=(1, 1))
    )
  )
)
[11/20 08:19:59] densepose.data.dataset_mapper INFO: DensePose-specific augmentation used in training: RandomRotation(angle=[0], expand=False, sample_style='choice')
[11/20 08:20:01] densepose.data.datasets.coco INFO: Loading datasets/coco/annotations/densepose_valminusminival2014.json takes 2.61 seconds.
[11/20 08:20:01] densepose.data.datasets.coco INFO: Dataset densepose_coco_2014_valminusminival categories: {1: 'person'}
…
